DIST_rsnr.pth (torch, 546357 bytes, 15 tensors)

weight f4 [64, 64]
000000 93 60 65 bb 7a 6c 1c bc 1a 41 58 3d 3f da 1e bd
       -0.003500019 -0.009547347 0.05279646 -0.038782354
000010 16 89 48 bd 56 58 b4 bc bb bb 34 3d 37 98 66 bd
       -0.04895886 -0.022014778 0.044124346 -0.056297507
000020 7e 13 35 bd 64 11 bd bc f8 9e ec 3c 63 73 3a bd
       -0.044208042 -0.023079582 0.028884396 -0.045520198
000030 8b df 0b 3d b4 bc d5 3c f0 47 0a bd 37 aa 67 bd
       0.034148734 0.026090957 -0.03376001 -0.056558814
000040 2a da 8b bb 59 08 0c bd 1a 42 40 3d 5a 8c 33 bd
       -0.0042679505 -0.03418765 0.04693804 -0.04383502
000050 10 13 02 3d af 0c 39 3d af f6 c8 bc fa 9c 6c 3d
       0.03175646 0.04517811 -0.02453169 0.057766892
000060 0e 7d f4 3c 0e 67 90 3d 69 9e 84 3d ae 8b 9b 3d
       0.029844787 0.07050906 0.06475527 0.07595001
000070 60 4c 09 3d ac e1 21 bd c7 de ad 3d 7d af 1a 3d
       0.033520103 -0.039521858 0.08489757 0.037765015
000080 85 b9 25 3d ba 67 4d 3d cd 56 cd bc 4a 13 cd bc
       0.04046013 0.05014775 -0.025065804 -0.025033612
000090 81 b9 4e bd e2 98 38 bd 35 a1 be 3c 33 3d 31 bd
       -0.05046988 -0.045067675 0.023270229 -0.043271255
0000a0 89 d0 85 bd 15 a2 04 3d 56 e3 23 3a b7 03 35 bd
       -0.065339155 0.032381136 0.0006251832 -0.044192996
0000b0 34 40 14 3d d4 77 98 bc da 70 18 3d fb a6 94 3c
       0.03619404 -0.018611826 0.037217 0.018146029
0000c0 fb 99 29 3d 88 7f 0a bd 69 17 12 bd 0c 96 a5 3c
       0.041406613 -0.03381303 -0.035666857 0.02021315
0000d0 37 ee ed 3c dc e8 42 bc 9d 20 2f 3c a8 bd b3 bc
       0.029044254 -0.011896338 0.010688928 -0.021941021
0000e0 8c ae 36 3b fc 1e 6a bd e6 24 e3 bc d4 f4 15 bd
       0.0027875034 -0.057158455 -0.027727555 -0.03661044
0000f0 c8 23 40 3d 6a 8a 56 3c a0 03 7a 3d c1 51 81 3d
       0.046909124 0.013094524 0.061038613 0.063144214
000100 76 3d 4a 3d 44 6f 87 bd f7 09 ba 3d 62 84 c3 bd
       0.04937502 -0.06613019 0.09083932 -0.095467344
000110 95 c6 9b bd ca 38 65 bd ea bd 82 3d e6 4a 5f bd
       -0.07606236 -0.05596236 0.063838795 -0.054514788
000120 c7 a0 4c bd 90 75 c0 bd 54 dd 73 3d 8f 5e 44 bd
       -0.049958017 -0.09397423 0.059537247 -0.04794174
000130 fc de af 3d f2 40 b3 3d 25 0e 88 bc a5 40 b9 bd
       0.08587453 0.08752622 -0.016608307 -0.09045533
000140 50 16 1b bd 40 53 0f bd 52 bc af 3d 6e ca 89 bd
       -0.037863076 -0.034991503 0.08580841 -0.067280635
000150 1e 6f d2 3d 37 d7 aa 3d d3 7e 27 bd 62 b4 55 3d
       0.102751 0.0834183 -0.040892433 0.05217398
000160 74 1e d2 3d 86 af c2 3d af fb bb 3d 0d 65 20 3d
       0.10259715 0.09506135 0.09178864 0.03915887
000170 74 88 d5 ba 1e 98 83 bd 8c 82 ab 3d f2 ec 8d 3d
       -0.0016291277 -0.064254984 0.08374509 0.06929959
000180 6d 3c 73 3d 06 19 93 3c e3 f1 3e bd ea 08 b2 bd
       0.0593838 0.017956268 -0.0466174 -0.086931065
000190 de eb bc bd 69 86 a1 bd cf 86 c8 3d 37 d7 6d bd
       -0.092246756 -0.07886965 0.09791338 -0.058066573
0001a0 e6 00 93 bd 2f 15 b9 3d a6 dd 5f bd 98 99 8d bd
       -0.07177906 0.090372436 -0.05465474 -0.06914061
0001b0 f1 ce 81 3d 63 42 29 bd b5 d0 76 3d e0 29 76 3d
       0.06338299 -0.041323077 0.060257632 0.06009853
0001c0 4e 01 9e 3d b8 31 85 bd 29 ea 5e bd 44 a9 86 bd
       0.077150926 -0.06503624 -0.05442253 -0.065752536
0001d0 a1 57 ec 3d 87 6e 90 bd 60 9c 6f bd 10 39 52 bd
       0.115401514 -0.070523314 -0.05849874 -0.05132395
0001e0 7d 75 90 bd b1 d5 3e bd c9 b7 7c bd df 4a 71 bd
       -0.07053659 -0.04659051 -0.06169871 -0.058909293
0001f0 2a 9f ce 3d 7a c6 df 3d 12 06 c2 3d fe da 5a 3d
       0.10088952 0.10926528 0.09473814 0.053431503
000200 1a 15 d9 bd 64 45 9d 3d 0b f2 b2 bd be 6f a4 3d
       -0.10599728 0.07679251 -0.08737572 0.08029126
000210 f7 7b a7 3d 9d 83 e7 3d e8 5c cd bd cb 2c 92 3d
       0.08177941 0.113044 -0.10027486 0.0713745
000220 06 67 91 3d 55 38 87 3d 54 b7 87 bd 98 b2 9a 3d
       0.07099728 0.06602541 -0.06626764 0.07553595
000230 4a 44 a1 bd 02 94 a7 bd f7 44 94 3d a3 7c 9a 3d
       -0.07874353 -0.08182527 0.072397165 0.07543304
000240 b2 9a 9c 3d 4f e3 7d 3d 97 32 bb bd a4 ec 3f 3d
       0.07646693 0.061984356 -0.091405086 0.046856537
000250 4f 5b f9 bd d5 ff 42 bd 6f 80 6e 3d 62 8e ae bd
       -0.12175619 -0.04760726 0.058227953 -0.08523251
000260 85 fb b5 bd 89 d6 e2 bd 1b d2 e1 bd b4 e2 66 bd
       -0.08885864 -0.110760756 -0.110264026 -0.056368545
000270 55 e9 67 3d 5b e4 6b 3d be 46 d6 bd a9 54 90 bd
       0.056619007 0.057590824 -0.10462712 -0.07047398
000280 22 5d 21 bd 65 5c 7f bd 99 ec 95 3d 80 43 bd 3d
       -0.03939546 -0.062343974 0.07320518 0.0924139
000290 e2 15 58 3d f5 44 9a 3d 2a d4 e2 bc d8 8a 5b 3d
       0.052755244 0.07532684 -0.027689058 0.05359921
0002a0 fe 55 96 3d 8d d6 d4 bd 76 6a 91 3d 71 c7 d7 3d
       0.073406205 -0.10392485 0.07100384 0.10536087
0002b0 3e 90 60 bd 75 2a 02 3d 38 95 16 bd 66 71 93 bd
       -0.05482506 0.03177877 -0.0367634 -0.071993634
0002c0 1a ac 9d bd 57 c4 96 3d ec 54 c0 3d 4b fb 4e 3d
       -0.076988414 0.073616676 0.093911976 0.05053262
0002d0 04 73 90 bd f7 d4 9f 3d c5 73 3d 3d 3f 40 fc 3c
       -0.070531875 0.07804292 0.046252985 0.030792354
0002e0 5a 29 b1 3d 5f a8 86 3d 7f e8 0e 3d 47 55 af 3d
       0.08650465 0.06575083 0.034889694 0.08561187
0002f0 dd 4b a9 bd 6f 0c 8a bd 4d 00 8d bd f0 f8 ca bd
       -0.08266423 -0.06740653 -0.06884823 -0.09910762
000300 5d 49 2b 3d c7 4c 10 bd 6d 5a 12 3d 08 a2 8a bd
       0.04181801 -0.03522947 0.035730768 -0.06769186
000310 31 84 0c bd 6a d6 00 bd ac b6 a5 3c 2d 76 48 bd
       -0.034305755 -0.03145448 0.020228706 -0.048940826
000320 a0 3a 23 bd 43 5b 3d bd 25 f1 39 3d a1 0a 85 bc
       -0.03985083 -0.046229612 0.04539599 -0.01624042
000330 89 bc f5 3c 16 4d 44 3d 57 4e c4 bc a2 33 81 bd
       0.029997127 0.047925077 -0.023963137 -0.06308676
000340 1c 70 40 bd 00 e6 9a bc df db fd 3c 21 19 3a bd
       -0.046981916 -0.0189085 0.030988632 -0.04543412
000350 d5 3a a9 3d 44 05 58 3d 22 d2 96 3c 2e f3 1f 3d
       0.082631744 0.052739397 0.018410746 0.039050274
000360 41 ab 2c 3d d8 23 a8 3d c2 1c 34 3d 6d 54 bb 3c
       0.042155508 0.08209962 0.043972738 0.022867406
000370 5a 57 42 bc d3 69 2e bd 37 1a 30 3d df 06 31 3d
       -0.011861647 -0.04258139 0.04299375 0.043219443
000380 00 0e 88 3d 87 1a 28 3d 6c b2 01 bd f3 03 09 bd
       0.06643295 0.041040923 -0.031664297 -0.033451032
000390 2b c0 41 bd 76 75 90 bd 50 cc 5a 3d d4 13 c5 bc
       -0.047302406 -0.07053654 0.053417504 -0.024057306
0003a0 2c 50 1f bc c7 a3 13 3d 89 1f 57 bd 88 3e c6 bc
       -0.009723704 0.036044862 -0.05252031 -0.02419974
0003b0 cc 0a a1 3d 84 6c 8c bc a3 22 ab 3b 4a ac 5d 3d
       0.078633875 -0.017141588 0.005222635 0.054119386
0003c0 1f 5e 57 3d 65 1b d8 bc 4c 8c 35 bd d3 c5 98 bc
       0.052579995 -0.02638025 -0.04432325 -0.018649017
0003d0 ac 39 27 3d 06 30 2c bd 71 94 8e bd 59 7c 59 bd
       0.040826485 -0.042037986 -0.06961907 -0.053097103
0003e0 c8 f3 df bc 34 3e 3f bd 36 ee 2c bd be 9a 29 bd
       -0.027337924 -0.04669018 -0.042219363 -0.04140734
0003f0 8a 60 8a 3c 21 74 1a 3d c0 45 8e 3d 25 92 90 3d
       0.016891737 0.037708405 0.069468975 0.07059125

bias f4 [64]
000000 d2 f8 63 bb 6a ae 21 3b f2 fc 18 bc 95 34 b1 3a
       -0.003478576 0.002467061 -0.009337651 0.0013519699
000010 ae 82 49 3b a7 59 22 3b 2b 73 8f bb fc de ff b9
       0.0030748057 0.0024772675 -0.0043777428 -0.00048803526
000020 fa fd 11 3b be cd 2a 3b be e3 6d bb 63 f9 2f 3b
       0.0022276626 0.0026062573 -0.0036299075 0.0026851527
000030 d7 9d 06 bb 64 d5 63 bb d4 6b 62 bb c6 83 31 3b
       -0.0020540857 -0.0034764642 -0.0034549134 0.00270866
000040 f2 27 99 3b b7 95 81 3b 59 32 2c ba c5 76 96 3b
       0.0046739513 0.003954615 -0.00065687817 0.004591795
000050 4b 5a eb 3b 92 13 75 39 64 32 f0 3b 33 11 da ba
       0.0071823946 0.00023372311 0.007330226 -0.0016637206
000060 aa 01 a1 3c 40 20 d3 39 b7 b3 04 bb a4 25 1a bb
       0.019654114 0.00040269084 -0.002024872 -0.002352097
000070 22 e0 c4 3b a7 9a 8d 3b 43 75 e8 ba 72 c5 27 bb
       0.006008164 0.0043214145 -0.0017735142 -0.0025599864
000080 09 86 9a bb 37 e9 b1 bb a3 4b 10 3b f1 cb 4d 3a
       -0.0047156853 -0.0054294127 0.002201774 0.0007850519
000090 89 9c 26 3b e1 ca 24 3a 6b f7 a0 bb 95 5a 2f 3b
       0.0025422892 0.0006286335 -0.004912307 0.0026756872
0000a0 a8 d0 83 3a 7c 56 b2 bb 63 4a 36 3b 91 ee 53 3a
       0.0010056691 -0.0054424386 0.0027815334 0.00080845604
0000b0 75 e4 82 bb 17 03 29 3b 0e 33 81 bc 74 bd dc bb
       -0.0039945194 0.0025789195 -0.015771415 -0.0067364518
0000c0 26 b9 20 bb f5 88 40 3b a6 62 d3 3a 0c c3 3a 3b
       -0.002452442 0.0029378508 0.0016127422 0.0028497605
0000d0 bc b6 63 bb 79 54 c9 b7 c9 56 9f 3a cb c0 33 3b
       -0.003474637 -2.4000403e-05 0.0012156601 0.0027428146
0000e0 ab 5b c9 3a cf da 11 3b 5a ae 37 3b c5 95 e5 ba
       0.0015362402 0.0022255664 0.0028027506 -0.0017515948
0000f0 6e df 5c bb b8 08 8f bb f1 30 47 bb f1 73 29 bb
       -0.003370251 -0.004365053 -0.0030394162 -0.002585646

q_proj.weight f4 [64, 768]
000000 42 28 66 3d 2a 8d 28 3d d2 63 d9 bc f2 7a 3b 3d
       0.056190737 0.04115025 -0.026536856 0.045771547
000010 b1 25 52 bd ef 37 fc bd 4c 00 65 3c 7c ee 25 3c
       -0.051305477 -0.12315356 0.013977122 0.01012766
000020 1e 10 44 3d 7f 78 64 bc b6 5c ad bc 1d 46 12 3d
       0.047866933 -0.013944744 -0.021162372 0.035711396
000030 f2 2e 40 3d 25 38 9c bd ae e4 8f bb 9d 19 75 bd
       0.04691977 -0.07627896 -0.0043912744 -0.05983888
000040 3c 80 dd 3c 77 46 0e bc a2 27 a8 3c db 06 94 3b
       0.027038686 -0.008683792 0.02052671 0.004517419
000050 94 db 9c 3c 6b 93 59 bd 8f 3a 01 bc 20 46 e5 3b
       0.019147672 -0.053119104 -0.007887497 0.006996885
000060 99 34 3f bd e0 d1 b4 bc 99 99 6b bd a0 12 05 bd
       -0.04668102 -0.022072732 -0.05751953 -0.032488465
000070 82 c1 d0 3d c1 2a 94 bd 40 43 66 3c 51 e1 a2 bd
       0.10193159 -0.07234717 0.01405412 -0.07953132
000080 41 c3 4c 3d f4 b2 ec 3c 3a ad 10 3d 7c 7b b1 bd
       0.049990896 0.028893925 0.03532145 -0.08666131
000090 ad 00 80 3d 94 0d 0c 3c e1 00 f1 3c e6 5c 09 3c
       0.06250129 0.008548159 0.029419364 0.008383965
0000a0 28 68 0c bc c1 ca c6 3c d5 87 e3 bc f5 d1 30 3d
       -0.008569755 0.024266602 -0.02777473 0.04316898
0000b0 2c 65 ef bc bb 0d 0e bd b7 99 05 bb 29 0b 87 bd
       -0.029223047 -0.034681063 -0.002038581 -0.065939255
0000c0 59 39 46 3c 35 bb 63 3b 53 46 39 bd a7 02 3d 3b
       0.012098634 0.0034749035 -0.045233082 0.0028840692
0000d0 94 4b 50 bd c6 03 75 bd 48 c1 97 3c 94 3f 22 bc
       -0.050853327 -0.05981805 0.01852478 -0.0099028535
0000e0 5a 25 3b bb 48 fb 3a 3c 71 0f 31 bc 27 3f 9b 3d
       -0.0028556199 0.011412449 -0.010806904 0.07580405
0000f0 48 70 75 bd 8c aa 79 bc 24 ad 6c bd 94 51 f4 3c
       -0.059921533 -0.015238415 -0.057782307 0.029824056
000100 20 f1 81 bc ef 76 4d bd 01 da 2a bc 26 27 b3 3c
       -0.015862048 -0.050162252 -0.010427953 0.021869253
000110 18 cd da bc 08 3c 14 bd e9 a8 4c bd ca 1e 06 3d
       -0.026709124 -0.036190063 -0.049965773 0.032744206
000120 6c a1 13 bc 51 3b 62 bc e3 35 56 3d b2 4d 0d 3d
       -0.009010654 -0.013808087 0.052297484 0.034497924
000130 9f 30 9a bc f5 73 c2 3c c8 5c 0a ba ba 6b 17 3e
       -0.018822012 0.023736933 -0.0005278108 0.14787188
000140 45 3e 37 3c 94 85 ea bb ef 98 3a 3d 0e c6 6f 3d
       0.01118428 -0.007157037 0.045556005 0.05853849
000150 b7 32 8d 3d 55 c9 72 bd c3 c6 1b bd 04 e6 0d 3d
       0.06894439 -0.059274036 -0.03803135 0.034643188
000160 a3 81 e0 3c 5a 40 17 3c 48 1f 16 3d c4 7a c8 3b
       0.027405566 0.009231651 0.036650926 0.0061181504
000170 ed e6 e7 bc 97 01 81 3d 01 88 8a 3d b7 19 54 3c
       -0.028308356 0.06299131 0.06764222 0.012945584
000180 f9 5a bd bd 46 60 7b 3d 2d 00 11 bc 5f 36 bc bd
       -0.09245867 0.06137111 -0.00885014 -0.09190058
000190 ad 37 f2 bc f9 51 2b 3d fd 2e f0 bc a3 7d 4f bd
       -0.029567564 0.041826222 -0.02931928 -0.050656926
0001a0 bf 0a 67 3b eb f5 96 37 44 94 f9 3b 77 77 95 3b
       0.0035254208 1.7995908e-05 0.0076165516 0.0045613605
0001b0 2e 5c 63 3a bd 40 69 bc d4 3d 67 3d 73 72 3f bd
       0.00086730986 -0.014236626 0.05645545 -0.046740007
0001c0 ea ca 52 3c 66 bb 5f 3c 79 07 85 bd 93 11 4f bd
       0.012865761 0.013655519 -0.06495566 -0.05055387
0001d0 b2 1b 9b 3d 88 7a 44 3d 13 b7 80 bd e9 93 d5 3c
       0.07573642 0.047968417 -0.06284919 0.026071506
0001e0 7a 44 c4 bd f5 f3 0c 3c 4d e8 25 bc 58 c0 85 3d
       -0.09583373 0.008603086 -0.010126186 0.06530827
0001f0 6c fa 94 bd ee f7 c8 bc 4a 61 d0 3d ad b1 72 bd
       -0.07274327 -0.024532285 0.101748064 -0.059251476
000200 b2 64 66 3d af 9a 4e bc 74 36 20 bd 84 5c d1 3b
       0.056248374 -0.012610122 -0.03911443 0.0063892026
000210 f1 20 5a 3c 53 6a 32 3d a0 86 a2 bd 3c 99 ba 3c
       0.013313518 0.04355843 -0.07935834 0.022778146
000220 78 2b 88 3c 16 c3 35 b9 8f 47 d4 bc 78 b7 8d 3d
       0.01662229 -0.0001733418 -0.025913028 0.069197595
000230 93 0f 26 bc 82 10 45 bd 25 27 68 bc 23 a1 46 3d
       -0.010135549 -0.048111446 -0.014169489 0.048493516
000240 5d fc d1 3c 8d af ba 3d e5 a4 39 3c 26 37 1c 3c
       0.025633032 0.09115515 0.011330818 0.009534633
000250 5f 97 91 3c 83 b3 9f bd f2 b1 51 39 16 1d 86 bd
       0.017772375 -0.07797911 0.00019998083 -0.065485165
000260 61 58 d4 3b 04 9a 0d bd a7 c0 d3 bd dd a4 38 bd
       0.006480262 -0.03457071 -0.1033948 -0.0450791
000270 72 e2 13 3c 9f 2d f4 bc 4b 27 44 3c d4 64 7f bc
       0.009026157 -0.02980691 0.011972259 -0.015588004
000280 f9 f9 42 bb ea 5f 3d 3d 74 63 1f bd f1 3a 38 bc
       -0.0029751046 0.04623405 -0.038913205 -0.0112445215
000290 a6 42 34 bc 9c f2 f7 3c ac 9a e4 b9 1e 2e 19 bd
       -0.011002218 0.030267052 -0.00043602788 -0.037397496
0002a0 0f ce d5 3b e0 80 8e 3d 8a 57 be bd ea 9d b2 3d
       0.0065248082 0.06958175 -0.092940405 0.08721526
0002b0 5f b6 0c 3a 23 9c 51 3d d6 31 82 bd 3e 12 08 bc
       0.00053677516 0.051174294 -0.06357162 -0.0083051305
0002c0 70 6a 13 3c 4b e5 b5 3d be 36 91 bd 1b 76 98 bd
       0.008997545 0.08881625 -0.07090519 -0.07444402
0002d0 e4 3c 9f bd e8 11 8a bd f1 8c 72 3c 94 2b 10 bd
       -0.07775286 -0.067416966 0.014804111 -0.03519781
0002e0 45 d9 16 bd 05 a3 c8 3b 6b df 84 3d 4c f6 8d 3c
       -0.036828298 0.006122949 0.06487926 0.017329358
0002f0 60 c5 d6 bd 92 e1 8e 3c 67 0d 73 bd 04 0b ba 3b
       -0.10486865 0.017441545 -0.059338953 0.0056775827
000300 a1 7c e6 3c 3f 6f af 3d 0d 97 83 3d 5b 93 ec bc
       0.0281356 0.085661404 0.06425295 -0.028878858
000310 e3 b7 4d bc f4 17 12 3d 71 11 93 bc fc 97 a9 3d
       -0.012556049 0.035667375 -0.017952653 0.08280942
000320 8f f7 0a bd 7b bb f9 bc 42 b7 3a 3c b0 43 05 3d
       -0.033927497 -0.030484905 0.011396231 0.032535255
000330 af 9e be bc d6 40 69 bd a2 a3 44 bc 71 ac 95 3d
       -0.023269026 -0.056946598 -0.012001904 0.07308281
000340 4e bb 65 3d ed 90 89 3c a1 ce 4d bd 14 b7 c0 3b
       0.05608683 0.016792739 -0.050245885 0.0058811996
000350 93 3a 1f bd 60 be 4a bc ff 61 0e 3d 56 57 81 3c
       -0.03887422 -0.0123744905 0.034761425 0.015788715
000360 4c 60 a4 bc f0 ea d6 bc a9 6b 04 bc 02 b1 95 bc
       -0.02006545 -0.026235074 -0.008082309 -0.01827288
000370 fd 31 81 bd 25 41 8a 3b 0e 76 b4 bc 23 08 6d 3c
       -0.06308363 0.0042191916 -0.02202895 0.014467272
000380 d8 3d 95 3d ce b7 3e bc 8d e5 5f bd f6 a0 66 3d
       0.072871864 -0.011640502 -0.054662276 0.056305848
000390 74 8a 6e 3d e0 7a 19 3c a0 ed 8b bd fc c0 27 3d
       0.058237508 0.009367675 -0.06832433 0.04095553
0003a0 a8 d0 45 bd 5e bc e9 bc a3 a2 05 bd 82 34 b1 bc
       -0.048294693 -0.028532203 -0.032625806 -0.021631483
0003b0 82 82 91 3d b7 77 8b bd 37 be 80 bd cc 76 97 bc
       0.071049705 -0.06809943 -0.062862806 -0.018489264
0003c0 78 23 c4 3c f3 b6 22 3d 49 d3 cc bd 25 1b 99 3c
       0.023942694 0.039725255 -0.10001237 0.018689701
0003d0 8f 8a dc bc 7f 2a ed bc a1 23 c1 bc 0d 78 95 3b
       -0.026921539 -0.028950928 -0.02357656 0.0045614303
0003e0 1a 2d be 3c 73 db 2d 3b ed fc 0b bc 6a 75 28 3d
       0.023214865 0.0026528507 -0.008544189 0.0411276
0003f0 ec 81 40 3d c9 11 00 bc 0c 87 e6 bc 63 69 d7 bc
       0.046998903 -0.00781674 -0.028140567 -0.02629537

q_proj.bias f4 [64]
000000 79 02 36 bc 5d 35 8e 3c 70 61 9e 3c 3b 59 c2 bb
       -0.011108988 0.01735943 0.019333571 -0.0059310473
000010 bb a8 14 3c 5a 02 dc bc e4 16 72 3d 73 dc 8c bb
       0.009073432 -0.02685659 0.05910386 -0.0042987405
000020 e3 7d 98 bc 3b 84 31 3d 20 36 de 3b ea 0f 94 bb
       -0.018614715 0.043338995 0.0067813545 -0.0045184987
000030 3f ca 89 bc 7a cf e5 3c 35 04 a8 3b 32 a5 24 bd
       -0.016820071 0.028053034 0.0051274546 -0.040196605
000040 9e 7c 86 bc aa 94 18 bd 71 42 02 bc 15 ee 83 bc
       -0.016416844 -0.037251152 -0.007950411 -0.016104737
000050 f1 71 86 3c 2c 41 27 3d 39 6b e0 3a 41 be d1 bb
       0.016411753 0.040833637 0.0017121799 -0.006400854
000060 dd 87 07 3d 75 5c 0c 3d dd f5 25 bc 30 a3 b4 3b
       0.033088554 0.03426786 -0.010129419 0.0055126175
000070 64 46 f6 bc 50 8a 4f bc aa 7d 4a bd d6 0e 67 bc
       -0.030062862 -0.012667254 -0.04943625 -0.014102658
000080 4f 08 81 bc 71 1a 95 bc 94 6f 8e 3c e2 04 ab bb
       -0.015751032 -0.018201085 0.017387189 -0.005219088
000090 d0 0d 3f bd 51 a4 c7 bc 64 30 92 3b 96 60 bb 3c
       -0.046644032 -0.024370344 0.004461335 0.022873204
0000a0 46 da 58 3c b9 c6 ec bb 22 f5 14 3d c3 fe 2b 3c
       0.013235634 -0.007225838 0.03636659 0.010497752
0000b0 90 e8 2a 3c 57 c5 56 3c 20 85 a2 bb 1c 80 84 bb
       0.010431424 0.013108573 -0.0049597174 -0.004043592
0000c0 9b 8c 01 3d 20 58 5e bc cf e9 0e 3d 2e 3e c9 3c
       0.031628232 -0.013570815 0.034890946 0.024565782
0000d0 14 07 99 3c 46 da f6 3c 72 28 93 3c d1 ca d2 3b
       0.018680133 0.030133378 0.017963622 0.006432869
0000e0 22 3c 99 3c 1f e0 12 bd e8 79 1c bd 2e 7b c3 bc
       0.018705431 -0.03585827 -0.038202196 -0.023862448
0000f0 c9 39 aa bc 82 2f ec bc 98 9f 57 3d 5f 84 7c 3c
       -0.020779507 -0.028831247 0.052642435 0.015412419

w_qs.weight f4 [256, 64]
000000 31 32 c0 3c 4e 18 1e 3b 5f e4 00 bc d5 ad 90 bd
       0.023461433 0.0024123373 -0.007866948 -0.07064406
000010 6c 67 34 3d 51 7a d9 b9 fa b1 41 3c ee 94 4f bd
       0.044043943 -0.00041480598 0.011822218 -0.05067914
000020 3f 52 33 bc 80 ef 1e be 75 db fd 3d 61 55 40 3d
       -0.010944902 -0.1552105 0.12395374 0.046956424
000030 a7 f7 ce bd e8 cc ed bc 1d 8b d8 bd fa 40 26 3e
       -0.1010583 -0.029028371 -0.10573409 0.16235724
000040 39 fd cc bc 80 88 fb bc 70 a0 d3 3d 30 14 aa 3d
       -0.02502309 -0.030704737 0.103333354 0.08304632
000050 36 bc f4 3d 78 bd 05 be 67 bd f9 3d de 67 4c bd
       0.11949961 -0.13060558 0.12194329 -0.049903743
000060 bb 11 cd 3d 4a d6 08 be ed 00 42 bd fe f1 01 3e
       0.100131474 -0.13362995 -0.047364164 0.12689969
000070 d4 92 8e bd cb 6c 97 3c d9 11 05 3e 24 d8 48 bc
       -0.06961599 0.018484494 0.1299509 -0.012258563
000080 0e 8b 55 bd 26 1c a3 3d 3e 72 a0 3d 09 ef c7 3d
       -0.052134566 0.07964353 0.0783429 0.09762389
000090 e6 94 9d bd 58 ad 90 bd b7 37 c3 bd 6e 2f 3c 3d
       -0.07694416 -0.07064313 -0.09532111 0.04594367
0000a0 91 b8 50 3d 8a 1c c0 bc 81 f2 a9 bd 44 ec c3 bd
       0.050957266 -0.023451108 -0.08298207 -0.095665485
0000b0 68 74 f9 bd 1b 9f ad bd 5e 9d 84 3d ce 57 56 bc
       -0.12180406 -0.084776126 0.06475328 -0.013082458
0000c0 00 c9 f7 3c 58 8b 74 bc 4d 14 26 3e 46 88 d1 bd
       0.030247211 -0.0149258 0.16218682 -0.1023107
0000d0 75 dc c4 3c 99 a0 c4 3c bf 91 08 be d8 e5 55 3d
       0.024030903 0.02400236 -0.13336848 0.05222115
0000e0 14 7f 45 3d bb 7c a2 3d df b5 25 3d 65 06 30 3d
       0.048216894 0.07933947 0.04045665 0.04297485
0000f0 d7 fb eb bd 34 61 ef 3d 51 bb a2 3d 66 3a 2e bd
       -0.11522644 0.11688462 0.07945884 -0.04253616
000100 73 89 f0 bc 3d 2f b2 bc 85 bc 10 bd 25 3b 2d 3c
       -0.029362416 -0.02175104 -0.035336036 0.010573183
000110 f2 61 d5 3d d6 71 99 bc 5a 11 4f 3d 68 90 28 3e
       0.10419072 -0.018731039 0.050553657 0.16461337
000120 2f bd cd bd 33 2f 88 3d d5 40 81 3d 12 e1 95 3d
       -0.100458495 0.066496275 0.06311194 0.073183194
000130 1f 29 97 bd 75 fa dc bd a7 db 49 3c 48 9e f1 bd
       -0.0738089 -0.107899584 0.012320436 -0.11797768
000140 08 77 1e 3d 01 9f a9 bd 1f 81 c8 3b fb c0 de 3d
       0.038687736 -0.08282281 0.006118908 0.10876652
000150 fb 9f 2a be 36 75 16 3e 69 7b 61 3c c2 d2 88 bd
       -0.1666259 0.1469315 0.013762333 -0.06680824
000160 fb 9f 59 bd f6 3f cf bd 19 b7 5d bc 36 fa 86 bd
       -0.053131085 -0.101196215 -0.013532423 -0.06590693
000170 6b 13 c5 3d 96 6c 45 3d fd 76 82 3d da 5f 72 3d
       0.09622844 0.04819926 0.063703515 0.059173442
000180 f9 c0 43 3e 1b 2f cb bd b8 59 1b be 23 a0 91 3d
       0.19116582 -0.09921094 -0.15170944 0.07110622
000190 bd 6f c4 bd 8f c5 ac 3b 7f 6e be bc 45 bb 16 3e
       -0.09591625 0.0052725743 -0.023246048 0.14719875
0001a0 af ad af bd 74 be db 3d f3 cc ab bd 5c c0 b4 bd
       -0.085780494 0.107296854 -0.083887 -0.08825752
0001b0 49 75 31 3e 08 b4 00 be 53 67 02 be 22 df 1c bd
       0.17329897 -0.12568676 -0.12734728 -0.038298734
0001c0 de 87 e4 bc 83 44 0c be cf ad d2 bd df 33 4d bd
       -0.027896818 -0.1369801 -0.102870576 -0.050098296
0001d0 77 ce c0 3d e2 82 04 3e 73 52 24 3e ca 18 0d 3e
       0.0941438 0.12940553 0.16047077 0.13778988
0001e0 ac a1 05 3e 2f 7a 05 bd 89 dc a7 3b 3e 5d 8b bd
       0.13049954 -0.032587226 0.0051227254 -0.06804894
0001f0 ce f4 80 bd b5 af 25 bd 5d 3d 04 bc 3d d5 67 bd
       -0.06296693 -0.04045077 -0.008071271 -0.056599844
000200 56 ad 9d 3d 9e 51 db bc 7f 4d 05 bd c2 21 51 bd
       0.07699077 -0.026772317 -0.03254461 -0.051057585
000210 5e e9 2f be 39 c5 15 3d b2 e1 65 bd 39 31 65 3b
       -0.17178866 0.03656504 -0.056123443 0.0034971966
000220 bc 32 03 bd 6d 8a 63 3d 32 2e bb 3c 4e ca b7 3d
       -0.032030806 0.055551935 0.022849176 0.089741334
000230 24 a4 1c be 32 9b 01 bc 5f 30 5a 3d 32 75 48 3d
       -0.1529699 -0.007910537 0.053268787 0.04893989
000240 ec 48 b7 3d 08 8d bc bd 8d d1 e3 3d 01 ed 09 3e
       0.089494556 -0.09206587 0.11123953 0.13469316
000250 51 60 b1 bd e1 2d fa 3d 68 cf d9 bd f7 cf de bc
       -0.08660949 0.12215782 -0.10635263 -0.027198775
000260 ce 50 00 3d fb 83 12 bd 55 c9 0a 3e ab 56 98 3d
       0.03132706 -0.035770398 0.13553365 0.074384056
000270 b4 a7 25 be 75 a9 ec bb 62 6d 9d 3d 19 ae eb 3c
       -0.16177255 -0.0072223493 0.07686879 0.02876954
000280 94 28 db bd 16 62 07 bd 80 67 1c bb d3 44 63 3c
       -0.10701099 -0.033052526 -0.0023865402 0.013871389
000290 b5 70 90 3d 5b 17 1e bd 90 71 2c bd fa 04 66 bc
       0.07052747 -0.038596492 -0.04210049 -0.014039272
0002a0 de 0b b0 bc db 0d 70 bd 4a cd 99 bd 9b 0d 0c bd
       -0.021490034 -0.058606964 -0.07509859 -0.034192663
0002b0 80 8a 7b 3d fb 03 c2 3d 3a cf 02 be d4 0d 86 3d
       0.06141138 0.094734155 -0.12774363 0.06545606
0002c0 b4 12 14 3e 71 33 90 bc fd 5f ce 3d d0 85 b2 bd
       0.1446026 -0.017602654 0.10076902 -0.08716929
0002d0 3e 42 b3 bc 87 bc 35 3e 34 e2 0c bc 27 e5 80 3d
       -0.021882173 0.17747699 -0.008598853 0.06293707
0002e0 fb 76 92 3d 5c f9 0c be 2a 6e fc bd fd e4 15 be
       0.071516 -0.13766998 -0.123256996 -0.14638133
0002f0 d6 8f f2 bc c7 e4 6f 3c 4c 1c 84 3d 7f 03 8e 3c
       -0.029609602 0.014641947 0.0645071 0.017335651
000300 bb 83 17 be 62 f6 27 3d 89 fb c2 bd e2 80 c3 bd
       -0.14796345 0.041006453 -0.09520633 -0.09546067
000310 e8 7b fd bd 8e b8 8d 3d 70 26 1d be 4b 4c c7 3c
       -0.12377149 0.06919967 -0.15346694 0.024328372
000320 50 f0 0e 3d d6 af ca 3d 8b 4b dd bd 05 26 a9 bd
       0.03489715 0.09896819 -0.10805424 -0.08259205
000330 d8 c3 83 3d 06 eb a8 3d ad c0 49 bd c5 01 03 bd
       0.064338386 0.08247952 -0.049256016 -0.03198411
000340 9f 7c f2 bd 1d 10 f7 3d b8 6f ea 3d 00 5d 87 bd
       -0.11840176 0.1206362 0.1144709 -0.06609535
000350 21 2e f7 bb 01 02 a1 bd 3f d2 38 3d 3b 48 ae b6
       -0.007543341 -0.0786171 0.04512238 -5.194013e-06
000360 c4 5b f5 bd f4 90 0d be 90 5b 45 b9 3b 59 03 bd
       -0.119803935 -0.13824826 -0.00018821494 -0.03206752
000370 06 f8 17 3e bc 84 12 3e 35 96 94 3d 7c 70 f3 3d
       0.14840707 0.14308447 0.07255212 0.11886689
000380 7e 0e 94 3b 0f 95 63 bc b9 e8 ba 3c 17 58 df bc
       0.004518329 -0.013890519 0.022816049 -0.027263684
000390 3e af fd bb 3b 92 ae bd 91 79 96 bd 38 c1 f1 bd
       -0.0077418378 -0.08523985 -0.07347406 -0.11804432
0003a0 d4 c0 73 b9 24 a2 a3 3d 11 71 c4 bc 8c 56 f3 3b
       -0.0002324612 0.0798991 -0.023979696 0.0074260887
0003b0 dc 17 1c bd 80 fc 1d bd 00 86 b1 3d 1a 76 8e bd
       -0.03810869 -0.03857088 0.086681366 -0.0695612
0003c0 05 c4 e4 bd f2 2b 09 3e 79 37 a7 39 72 f0 06 bd
       -0.111702 0.1339567 0.00031894053 -0.03294415
0003d0 33 4a 8e 3b d0 9a 08 3d 3a 29 59 3d 1e 64 0f be
       0.0043423413 0.033350766 0.053017832 -0.14003035
0003e0 69 9e 6b bd 10 f5 f1 3d d3 89 4f bd 36 d8 f5 bd
       -0.05752412 0.1181432 -0.05066855 -0.120041296
0003f0 ec 01 f3 bc a1 cd 8a bc 57 b0 d8 bd 4b 6a 5b bc
       -0.029664002 -0.016943755 -0.10580509 -0.013392041

w_ks.weight f4 [256, 64]
000000 4a 1a 26 bd 4d 3b 05 be 92 b6 3d 3d ce e4 04 be
       -0.040552415 -0.13010903 0.04631669 -0.12977907
000010 54 67 e8 3d 1a 5d a8 bd e1 1a 5e 3d 87 a1 1c 3d
       0.11347833 -0.08220883 0.054224852 0.038239982
000020 d4 68 3c 3d 4d e7 2c be 66 88 e9 bb 93 98 fe 3d
       0.04599841 -0.16885109 -0.0071268557 0.12431445
000030 56 da d4 bd 37 f3 91 3d e7 83 b2 bd a7 bc 93 bd
       -0.10393207 0.07126468 -0.087165646 -0.07213717
000040 32 9e eb 3d a1 b8 46 3d 28 ff c8 bc 1b 3a 81 bd
       0.11504783 0.04851592 -0.02453573 -0.06309911
000050 35 14 6d bc 0f e7 d2 bd 60 06 04 3e 73 eb 90 3d
       -0.01447015 -0.10297977 0.12893057 0.070761584
000060 05 74 4d 3d 2c 82 29 3e e2 fd 77 3c 5e d2 b4 3d
       0.050159473 0.16553563 0.015136214 0.08829187
000070 7b e1 08 3b 10 d6 98 bc dd bb 73 3d 96 5b 38 3d
       0.002088635 -0.01865676 0.059505332 0.04500922
000080 78 49 41 bd f1 62 49 39 e3 78 d9 3d 36 e7 cb 3c
       -0.047189206 0.00019205712 0.106187604 0.024890523
000090 ad 37 44 3d e3 62 63 bc 90 11 d0 bd a2 ee f3 3d
       0.04790466 -0.013878557 -0.101596 0.1191075
0000a0 fd 0f be bd 0f 3c 2f 3d e1 c4 f1 3d 37 49 92 3d
       -0.09280393 0.042781886 0.1180513 0.07142871
0000b0 f3 87 0a be 46 b8 a0 3d d3 7e 79 3c 90 64 91 bd
       -0.13528423 0.07847647 0.015227991 -0.07099259
0000c0 c2 eb 43 be 7c 35 91 bc da 55 94 3d 9f c7 da 3d
       -0.19132903 -0.017725699 0.072429374 0.10682606
0000d0 ac 8d 06 3e bd c8 cb bd 26 20 94 bd f7 54 36 3d
       0.13139981 -0.09950397 -0.07232694 0.044514623
0000e0 32 75 03 bd 25 7e 11 bd b8 58 d6 3c a8 ac c2 3d
       -0.032094188 -0.03552069 0.026165351 0.09505588
0000f0 26 b5 5b 3c 06 65 8c bd e3 5e 8c 3c c0 4b 8e 3d
       0.013409888 -0.06855206 0.01713509 0.06948042
000100 82 9f bb 3d 40 3f d3 3d c6 0c 4c bd 38 7f a0 bc
       0.09161283 0.10314798 -0.04981687 -0.019591913
000110 a1 de c5 bd e9 af 07 3e 43 63 8e 3d 99 2b 80 3d
       -0.09661604 0.13250698 0.069525264 0.062583156
000120 7e a4 a2 bd 6d 8c ff 3d c7 af 83 3d d2 1d e4 bd
       -0.07941531 0.12477956 0.06430011 -0.111385
000130 d3 2d f9 3d 25 a2 45 3d ff 50 8d 3d fb d4 45 bd
       0.121669434 0.048250336 0.069002144 -0.048298817
000140 56 4d 1a be af 82 6e 3d 39 cb 9f bd f5 73 36 3d
       -0.15068564 0.0582301 -0.078024335 0.04454418
000150 6b 74 e2 3d 41 1e 79 3d cf 91 d6 b9 8b 4f 15 be
       0.11057361 0.060819868 -0.00040925897 -0.14581124
000160 5d 08 1d be ee 30 24 3c b0 4f d0 bd 28 90 e3 3d
       -0.15335222 0.010021431 -0.10171449 0.1111148
000170 3b 3f c2 bd 3e d7 17 bd e5 8d 16 bd 43 c5 2a bd
       -0.094847165 -0.037070505 -0.036756415 -0.04169203
000180 1b bf f4 bc 7b 13 ae bd 2f a2 f7 bc 9f d8 d6 3c
       -0.029876282 -0.08499809 -0.030228702 0.02622634
000190 41 6a e9 bd 6f c9 d5 3c a7 2a 02 3e f1 77 21 3d
       -0.113972194 0.026097028 0.12711583 0.039421026
0001a0 78 a0 ef bd fb 10 d4 bd a2 87 d4 3d cc 40 6b bd
       -0.11700529 -0.10354801 0.103774324 -0.057434842
0001b0 79 1a 09 3d 1d 5f 93 bd 85 fa 5b bc d3 06 44 bd
       0.033472512 -0.07195876 -0.013426428 -0.04785807
0001c0 bb 44 d7 3d 65 b3 0d 3e 15 75 f4 bd 08 56 4d 3d
       0.10511156 0.13837965 -0.11936394 0.050130874
0001d0 6c 75 23 be 4d 31 31 3d 3d d7 7c 3d 55 0c 1d be
       -0.15962762 0.043259908 0.061728705 -0.15336736
0001e0 0a 44 af 3c 50 4b 0d be 35 db b8 3c 86 42 72 bd
       0.021394748 -0.1379826 0.022565464 -0.059145473
0001f0 13 cc e1 bd 08 27 6a 3c a4 e6 fd 3d 95 25 ab 3d
       -0.11025252 0.014291532 0.12397507 0.083567776
000200 4d 24 92 bd 4d 48 10 3d d3 c8 08 be 26 8b ab 3d
       -0.0713583 0.0352252 -0.13357858 0.0837615
000210 c9 2d 0b 3d b1 83 c3 3d 19 58 f1 bd cf b5 7f bd
       0.03397921 0.095466025 -0.117843814 -0.062429246
000220 09 64 8e 3c 7d 80 1f 3d a0 37 26 be 3a eb 12 3e
       0.017381685 0.038940895 -0.16232157 0.14347544
000230 a1 54 08 be 1a 6a 61 3c 8e 86 ce bd eb 6b 2f 3d
       -0.13313533 0.013758207 -0.10084258 0.042827528
000240 41 e6 99 bd d6 35 7a bd 87 f5 a4 3d 66 b0 36 be
       -0.075146206 -0.0610865 0.08054643 -0.17840728
000250 a8 90 d3 bc eb 8b 15 be 38 88 82 bd 9c 19 2c be
       -0.025825813 -0.14604156 -0.06373638 -0.16806644
000260 79 21 63 3c e3 fb 6a 3d f9 f0 97 bd 9a 51 44 be
       0.013862961 0.057369124 -0.07419009 -0.19171754
000270 22 47 83 bc d1 60 91 3d 3a e2 48 3c 5b ae 76 3d
       -0.01602513 0.070985444 0.012260968 0.060224872
000280 a6 42 ba bd 24 67 85 3c db b7 a8 bc f0 29 a9 3d
       -0.090947434 0.016284533 -0.020595482 0.08259952
000290 bd 30 e3 3d 9e 18 ea bc 42 96 9b 3d 05 8b 3c 3d
       0.110932805 -0.028576192 0.07597019 0.046031017
0002a0 59 e3 07 bc 2d 57 94 bd b0 d6 0c 3d fd 9e e4 bd
       -0.00829395 -0.0724319 0.03438443 -0.11163137
0002b0 27 0d 36 bd d9 c3 09 3c 98 dd 0a 3e 84 2b da 3b
       -0.044446137 0.00840851 0.13561094 0.0066580195
0002c0 c9 12 12 3c e1 99 1f bd 65 d7 50 3d 6e 1b 3a b9
       0.008915612 -0.03896511 0.050986666 -0.0001774856
0002d0 af e8 b4 3d b5 62 8b 3d cb 57 97 bc 3b 4f 00 be
       0.088334434 0.06805936 -0.01847448 -0.12530224
0002e0 2b 62 72 3d 85 1c d7 bd aa 52 9c bd 91 aa 3b 3d
       0.05917565 -0.105034865 -0.076329544 0.04581696
0002f0 4a c7 87 bd d0 90 1d be 64 f4 a0 3d a7 f6 74 bd
       -0.06629808 -0.15387273 0.07859114 -0.05980554
000300 c6 54 07 3e 47 3a c9 3b af 79 18 3d 10 bf e3 bd
       0.13215932 0.0061409804 0.03722542 -0.11120427
000310 9d 40 f2 3c 55 0b 12 be 7e ee b6 3c 73 98 76 bd
       0.029571826 -0.14262135 0.022330519 -0.06020398
000320 87 20 8d bd 24 a9 06 3d 4c 00 78 bc 05 3c 56 3d
       -0.0689097 0.03287615 -0.0151367895 0.052303333
000330 52 3d 22 3d 9f 3f 8f 3d 47 64 8a 3d 16 cc f6 3d
       0.03960926 0.06994557 0.06757408 0.12050645
000340 01 7d 94 bd 2b 77 a5 bd dc c7 07 bd 11 4e 33 bd
       -0.07250405 -0.0807937 -0.033149585 -0.04377562
000350 4c 2e 00 bd 02 5b f6 ba 86 f1 ac bc 7c 35 43 3c
       -0.031294152 -0.0018795433 -0.021111261 0.011914607
000360 94 59 a5 bd ef 79 4f bd e8 69 15 3e 34 6c 42 3c
       -0.08073726 -0.050653394 0.14591181 0.011866618
000370 38 b0 9a 3d 16 ea 77 3d 1c 22 0e bd 2c a3 c8 bd
       0.07553142 0.060525976 -0.034700498 -0.097967476
000380 41 f2 b5 3d f9 50 11 be f1 22 69 bd bc bc 07 bd
       0.08884097 -0.14191045 -0.05691809 -0.033138976
000390 1a a5 c1 3c 7a 9d a8 3d a7 18 21 bc 3b 4c c8 bd
       0.023638297 0.08233161 -0.009832538 -0.09780165
0003a0 fb 2a 24 3c bf 67 0c 3e e1 fb 83 3d 0f 41 48 bd
       0.010020013 0.13711451 0.064445265 -0.04889017
0003b0 e8 9f 54 3d 8c f5 a7 3d 3d 8d e8 bd ac 34 02 3b
       0.05191031 0.08201131 -0.11355064 0.001986782
0003c0 2c 10 2a be 2f d1 12 be 96 d2 1f bc 2b 00 4a 3d
       -0.16607732 -0.1433761 -0.009754797 0.049316566
0003d0 cd 5d d1 bd bd 35 86 3d b8 d2 e2 bd 7c 14 06 3e
       -0.10222969 0.065532185 -0.11075348 0.13093752
0003e0 9c c6 40 3c 5e 8c 36 bc 27 d2 a7 3d 8b 88 41 3d
       0.011766102 -0.011141865 0.0819438 0.04724936
0003f0 84 96 05 3d 8b 39 a3 bd 78 31 b2 3d 4e 4c 3a bd
       0.032614246 -0.0796996 0.08700842 -0.045482926

w_vs.weight f4 [256, 64]
000000 d4 88 55 3d 03 f5 d5 bd ba 70 fb bd 54 89 bd bb
       0.052132443 -0.10447123 -0.1227736 -0.005784193
000010 c2 a3 09 3d cd a7 63 3d db 4d dd bc 45 12 46 3d
       0.033603437 0.05557995 -0.027014663 0.048357267
000020 69 a7 bc 3d 6c 95 a9 3d f6 8a 81 bd 40 f9 da 3c
       0.092116185 0.08280453 -0.06325333 0.02673018
000030 62 f8 de 3c b9 29 13 bd 70 8c 53 bd 18 99 c1 bc
       0.027218048 -0.03592846 -0.051647604 -0.023632571
000040 e1 b2 a9 3c bc f7 b9 bd 53 1d bf 3d 24 6f f1 3d
       0.020715179 -0.09080455 0.09331765 0.117887765
000050 bc fe 3a 3d d2 3e f3 bd f6 0e b6 3d 19 d5 e6 bc
       0.04565309 -0.118772164 0.08889572 -0.028177785
000060 04 1a f9 3c 2c 63 f9 bc ca 8b c6 bc 1d 92 38 3d
       0.030407913 -0.030442797 -0.024236578 0.04506122
000070 cc 71 89 bd ef d5 b0 3c ed e6 8e bb 80 55 6c 3d
       -0.06711158 0.021586386 -0.0043610246 0.057698727
000080 ec 85 2d 3d b6 05 02 3e b7 17 87 bd 65 75 5c 3d
       0.042364046 0.12697491 -0.0659632 0.053822894
000090 75 e5 61 3d 33 fe 11 3e 63 ac 66 3d 2e 85 95 3d
       0.055150468 0.14257126 0.056316745 0.07300793
0000a0 84 78 c6 3d dc f5 e7 bd 2c d1 c6 bd 8f 3e da 3c
       0.09690955 -0.11326191 -0.09707865 0.026641158
0000b0 06 51 f3 3d 2f 7c 0c 3d b0 5e a7 bd f3 17 98 3d
       0.11880688 0.03429812 -0.08172357 0.07426443
0000c0 a7 7f aa 3d ff 9e a0 3d 05 ab 6c bd b3 34 47 3c
       0.08325129 0.07842826 -0.057780284 0.012158561
0000d0 24 3c ac 3d e3 82 67 bd 78 a5 4e 3d 13 13 59 3d
       0.084099084 -0.056521308 0.050450772 0.052996706
0000e0 f9 24 17 3c f0 d2 dc 3d 25 28 96 bd f1 32 80 ba
       0.009225124 0.10782421 -0.07331876 -0.0009780807
0000f0 67 a4 2c 3d 07 2b a5 3d 6c 13 3a 3c a2 12 e5 3d
       0.042148974 0.080648474 0.01135717 0.111851946
000100 b5 da bf 3c df 7a b2 3d 00 c4 f5 bd 79 35 03 bc
       0.023419717 0.08714842 -0.12000275 -0.008008354
000110 df ac ec 3c 31 bd 49 3a 0a 98 bc 3d 0c 2b ba bd
       0.028891025 0.0007695733 0.09208687 -0.09090242
000120 e0 d5 b2 bd 02 9b b8 3c f6 27 ad 3d e3 d9 82 3c
       -0.087322 0.022534851 0.084548876 0.015973037
000130 08 66 bf bd 36 1a 0d bd 0c ea e1 3d 1f 46 d8 bd
       -0.09345633 -0.034448825 0.11030969 -0.105602495
000140 6f 50 bb 3d 7d fe b9 bd 10 f6 62 bc 4a ac ae bb
       0.09146201 -0.09081743 -0.013852611 -0.005330597
000150 76 58 b9 bd c9 85 27 bd 60 9a f4 3d 9a 0c 96 3d
       -0.09050076 -0.04089907 0.11943507 0.07326622
000160 80 2b 8a bc 8d 21 ef bd c3 d2 bd bd a2 fb 44 3b
       -0.016866446 -0.11676321 -0.09268715 0.0030057211
000170 7e a3 c2 3d 94 a9 e6 3b 1d 90 36 bd 43 b9 a3 3d
       0.0950384 0.0070392583 -0.04457103 0.0799432
000180 04 b2 90 bd 38 d3 bc 3a 8a 6e 4c 3d 5e 01 a7 3d
       -0.07065204 0.001440621 0.049910106 0.08154558
000190 a3 3b 8a bb 4e 83 db bd aa 4a 84 bd e8 e4 90 3d
       -0.004218535 -0.10718404 -0.064595535 0.070749104
0001a0 85 78 d6 bd a3 8a 82 bd 31 8d 73 bd e9 d6 a9 3d
       -0.10472206 -0.06374099 -0.059460822 0.08292944
0001b0 5a f8 e4 bd fa 8d ad 3c 62 9b 81 bc 58 31 81 3d
       -0.11180182 0.021185864 -0.015821163 0.0630824
0001c0 68 3a a9 bd cd a9 c0 3d fa 28 1f bd 8b c9 6e bd
       -0.08263093 0.09407387 -0.038857438 -0.058297675
0001d0 85 3b 81 bd 7e da af bd 3d 2a ba bc aa 25 d5 3d
       -0.063101806 -0.08586596 -0.022725219 0.104075745
0001e0 6e 52 d0 3d 44 ea 88 3d 8a 9c b9 bd 2d f7 86 b9
       0.10171972 0.066853076 -0.090630606 -0.00025742632
0001f0 f4 7f 0d 3e bf 3e 09 bc 73 9b c1 bc b4 57 a0 3d
       0.13818341 -0.008376776 -0.023633694 0.07829228
000200 5f b3 bb bd e9 73 47 bd 77 a6 b0 bd 71 c6 aa bc
       -0.09165072 -0.048694525 -0.08625501 -0.020846577
000210 e8 bc 83 3d d3 c5 d9 3d 34 95 cd bc 43 23 01 3e
       0.064325154 0.10633435 -0.02509556 0.12611108
000220 96 b6 07 3d c5 c5 86 bd 2c d9 b7 bd c1 7b d2 bd
       0.033133112 -0.0658069 -0.08976969 -0.102775104
000230 e3 77 4e 3c 7f 75 4f 3b 1e d3 f1 bd 04 fa 29 bd
       0.012601825 0.0031655726 -0.118078455 -0.0414982
000240 bd 41 78 3d 96 03 d1 3c 7e 8c 3c 3d bb 62 e1 bd
       0.060609568 0.025514405 0.04603242 -0.110051595
000250 8d 62 7b bd a2 79 53 bd 60 d3 9f bd a8 0d d3 bd
       -0.061373282 -0.05162967 -0.078039885 -0.10305339
000260 a0 bc 01 3e c4 86 64 bd 7f 7f 5a bd 79 c5 84 bd
       0.12669611 -0.055792585 -0.053344246 -0.064829774
000270 d6 fe bc 3d fd f5 8a 3d 18 52 a1 3a 7e 60 e6 3c
       0.092282936 0.067852 0.0012307791 0.028122183
000280 37 32 00 be 29 e3 92 3d f6 db a0 bc d9 04 dd 3d
       -0.12519155 0.071722336 -0.019636136 0.1079194
000290 83 9c 8c bc f6 c9 48 bd 30 76 90 bd b7 51 b2 3d
       -0.017164474 -0.04902073 -0.070537925 0.08706992
0002a0 0b 98 55 3b 6c b7 e9 bd 13 2d e6 3d 50 0a a9 3d
       0.0032591845 -0.11411938 0.11239066 0.0825392
0002b0 83 78 12 3e 42 02 87 3c 4b 59 a6 bd 51 0d 62 bd
       0.14303784 0.016480569 -0.081225 -0.05518848
0002c0 c7 46 8b bc 74 ab c5 bd 0a 30 6e 3c 44 81 f6 3d
       -0.017001523 -0.09651843 0.014537821 0.12036374
0002d0 4b 99 23 3d e5 fb a4 3d 2b 45 00 3e 2e 57 c5 bd
       0.039941113 0.080558576 0.12526385 -0.09635769
0002e0 29 46 10 bd ff 4c 18 3b 21 84 2b bd 36 a9 48 bd
       -0.03522316 0.0023239253 -0.041874055 -0.048989497
0002f0 f8 5c 81 3d fb 88 9c bd 46 da 62 3d 78 2a 93 bd
       0.063165605 -0.076433145 0.055383943 -0.07185835
000300 80 21 c6 ba 78 a5 26 3c 48 21 ac bb d7 e3 a4 3d
       -0.0015116185 0.010171287 -0.005252991 0.080512695
000310 b1 84 01 be e8 58 7c 3d ef 00 05 3e dc 61 20 bd
       -0.12648274 0.061608225 0.12988637 -0.039155826
000320 38 70 80 bd f5 f5 28 3d 9b 19 33 bd d6 e8 82 3c
       -0.06271404 0.041250188 -0.04372559 0.015980165
000330 b3 df b5 bd 6a ac f2 3d 42 f9 dd 3b ab 50 5a bc
       -0.08880558 0.118492916 0.0067740986 -0.013324897
000340 bb ea be 3b 67 f1 27 bc 1c 69 21 bd 80 4b e5 3d
       0.005826322 -0.010250426 -0.03940688 0.11196041
000350 51 f0 9b 3d 8b 5e 20 bc 63 28 2f 3c 73 eb fc 3d
       0.07614196 -0.009788166 0.010690781 0.12349596
000360 f9 8c fc bd 4b e1 bd bd a2 d0 97 3d 64 25 79 bd
       -0.12331576 -0.09271487 0.074128404 -0.060826674
000370 07 d9 86 3d 9c 6b 34 3d b8 84 3d bd 6c b6 87 bd
       0.065843634 0.044047937 -0.04626915 -0.06626591
000380 61 14 2b bb 4f 48 aa 3d 29 9f 13 bc 94 bf a6 bd
       -0.0026104676 0.08314573 -0.009010115 -0.081420094
000390 6b 36 af 3c 84 a6 c5 bc 4d fb bf bb ec cb 06 bd
       0.021388253 -0.024127252 -0.005858815 -0.03290932
0003a0 64 39 c5 bd 95 d6 44 bd 39 72 b6 3c 29 fe 89 3d
       -0.09630087 -0.048056204 0.022271262 0.0673793
0003b0 2a 04 25 bb 67 5c b7 bd b4 bd cc bd a7 59 01 be
       -0.0025179484 -0.08953171 -0.099971205 -0.12631856
0003c0 d5 d3 dc 3d 40 64 60 3d 93 ef 90 bd 0a ef 80 bd
       0.10782591 0.054783106 -0.07076945 -0.06295593
0003d0 5e df 06 3d 93 ad 78 3d 14 46 e3 bc 6d 17 32 3c
       0.032927863 0.06071241 -0.027743377 0.010869843
0003e0 8f 9a e3 3d 96 14 8f 3d b8 21 f2 3d 6e 0e 23 bd
       0.11113464 0.06986348 0.118228376 -0.039808683
0003f0 d1 f7 1d bd 29 d9 6c bd 9e 91 03 3e 70 d2 3b 3c
       -0.038566414 -0.057824288 0.12848517 0.011463746

fc.weight f4 [64, 256]
000000 fd 99 2d 3d 7c 33 c9 bc 4c ef 82 3d 33 05 94 bd
       0.042383183 -0.024560682 0.063932985 -0.07227554
000010 93 61 4d 3d 2a 9e 20 bc 40 39 06 3d 6a 1c 8b bc
       0.050141882 -0.009803334 0.03276944 -0.016981322
000020 88 08 84 3c 63 b9 03 bc c2 ba fc 3c 38 ea 8f 3b
       0.01611735 -0.008039805 0.030850772 0.0043919347
000030 4c af 1e 3d 24 fc 3b bb 83 c3 cc bc 00 bc 7a bd
       0.038741395 -0.0028684223 -0.024995571 -0.061214447
000040 fb 3b 30 bd 80 b1 92 3c 25 87 0a 3d 4e 40 20 3b
       -0.04302595 0.017906904 0.03382029 0.002445239
000050 e8 83 04 3d a9 3c 9b 3b 25 c4 70 bb 47 4f b7 3a
       0.032352358 0.004737456 -0.0036738005 0.0013985418
000060 67 d7 1e bd 17 3d ce 3c 22 6d 62 3d 0d 59 9b bd
       -0.038779642 0.025175614 0.05527986 -0.075853445
000070 fa 20 0c bc c6 98 9d 3c 23 a8 5d bd ef 9e 86 ba
       -0.008552784 0.019237887 -0.054115426 -0.0010270755
000080 ea 35 54 bd dc 83 9f 3d 55 56 07 bc 2f 0a 0e bd
       -0.05180923 0.07788822 -0.008260329 -0.03467768
000090 ca 95 3e bd 31 3d 7a bd fe 7d 0e bd db 3d 16 bd
       -0.04652957 -0.061093513 -0.034788124 -0.036680084
0000a0 ac 85 9e 3c 1e 14 56 bc 4b 20 9c 3c 2d 30 08 bd
       0.01935085 -0.01306632 0.019058367 -0.03324907
0000b0 70 32 48 3d d6 d4 5a bc b0 3e 43 bd 11 62 7e bd
       0.048876226 -0.013356408 -0.047667205 -0.062105242
0000c0 6c 93 e9 bb 11 5d f4 bb 3b 51 f6 3c e5 53 98 3d
       -0.0071281698 -0.0074573834 0.03006803 0.074378766
0000d0 d2 f2 38 bd f5 4d fe 3c 38 a2 96 bd f3 e5 8b bc
       -0.045153446 0.031043032 -0.073551595 -0.017077422
0000e0 85 6f 6b 3d 36 e9 6a 3c ec 89 ce 3b cb 1e 1a 3d
       0.0574794 0.014337828 0.0063030627 0.037627023
0000f0 58 47 2e bd f0 4b a6 3c a8 e4 04 bd ca d4 a3 bd
       -0.042548507 0.020299882 -0.032444626 -0.07999571
000100 71 3c 19 bd 73 0a a2 bb 0d fd 5a 3d 00 2b 01 3d
       -0.037411157 -0.0049450933 0.053463984 0.03153515
000110 a8 9c a8 bc 05 68 62 3c 05 33 8d 3d d3 be d8 bc
       -0.020582512 0.0138187455 0.06894497 -0.02645818
000120 3b 6b b7 3c e1 32 86 3c c6 6a 66 bb d8 6f 80 bc
       0.022389999 0.016381683 -0.0035158857 -0.015678331
000130 6b 18 a8 3c 63 d8 02 bd 75 bb ed 3c 01 1b 98 3b
       0.020519456 -0.031944644 0.02902005 0.004641891
000140 f4 63 1d 3d 2f 93 42 3b a2 b4 da 3d f6 40 1d bc
       0.0384254 0.002968978 0.10678984 -0.009598007
000150 e0 ef 01 3d 50 39 4c 3c aa c0 08 3d 0a 9d 62 bd
       0.031722903 0.012464836 0.033386864 -0.055325545
000160 e8 00 dc 3c a8 bb f2 3b 88 46 d9 3b 56 c8 6f bc
       0.0268559 0.0074076243 0.0066307224 -0.014635166
000170 0e 8b 7d 3d 5d da 16 3c c9 39 76 3d f8 f2 52 3d
       0.06190019 0.009207335 0.060113702 0.051501244
000180 d2 50 35 3b 2a 1f 81 bc d7 a0 22 bd 7c bd eb 3c
       0.002766658 -0.01576193 -0.03970417 0.028776877
000190 cc 96 aa bc 07 7d 1c 3c 0b 0a 52 3d 22 c6 4f 3c
       -0.020823859 0.009551293 0.05127911 0.012681516
0001a0 f8 41 29 3d f2 46 69 3d 8d da 98 3d 9b 94 82 bd
       0.04132268 0.056952424 0.0746356 -0.063760005
0001b0 54 b9 a4 bd 3d 37 f1 bc b9 a5 28 bc 84 77 d9 3c
       -0.08043161 -0.029445285 -0.010293418 0.026546247
0001c0 ae eb 7a 3d e0 c2 95 3c 00 91 79 bd e5 7c 1e bd
       0.061259918 0.0182814 -0.0609293 -0.038693327
0001d0 5a 50 eb 39 5e 23 85 bc a6 4e 34 3c 82 d6 36 3c
       0.0004488256 -0.016252216 0.011005079 0.011159541
0001e0 61 fa 16 3c 3f f1 39 3d da a6 89 bd b5 26 08 bd
       0.009214968 0.045396086 -0.067212775 -0.03324004
0001f0 d6 7f 24 bd a0 40 40 bd 2d 5b 04 3d 87 ef e2 3b
       -0.040160976 -0.04693663 0.032313515 0.0069255265
000200 0e 0a a6 bb d6 b5 05 3c 20 01 df 3c 4f 52 8d 3d
       -0.0050671166 0.008161029 0.027222216 0.06900465
000210 1d 76 85 3d 81 e7 82 3d fd 4d 71 3d e1 18 0e 3d
       0.06516669 0.06391812 0.058912266 0.034691695
000220 6c f3 7e 3b f5 d4 7c bc b7 aa 4f bd 73 e1 86 bc
       0.0038902415 -0.015431632 -0.050699916 -0.016464924
000230 c0 04 54 bd cb 8f 74 3d b0 7c 97 3d 97 dc ce 3c
       -0.051762342 0.059707444 0.07396829 0.02525167
000240 a0 eb 59 3d 3c 56 bc bd 22 82 77 3d af f3 59 3d
       0.053203225 -0.091961354 0.06042684 0.05321091
000250 16 d1 ff bc fc be 2a bd ab ee b2 bc d2 5c ab 3c
       -0.03122763 -0.041686043 -0.021842321 0.020918284
000260 ef 86 f0 bc 7a 89 0b bd a8 e2 11 bc cf a9 51 3c
       -0.029361216 -0.034066655 -0.008904137 0.012796833
000270 2f 0f f1 bb 87 0d 27 3a 71 ab 7d 3c 76 49 85 bc
       -0.0073565464 0.000637256 0.015482769 -0.01627038
000280 c5 fd a4 3a 4a 51 80 bd df 9b 44 bd 76 4c 63 3d
       0.0012587836 -0.06265505 -0.048000213 0.05549284
000290 d7 3c bd 3c 46 bf 93 bc a4 11 f0 3c 35 d9 bf 3a
       0.0231003 -0.018035542 0.029305287 0.0014636876
0002a0 bc db 95 3c 94 00 6d bd 12 98 63 bd 00 df b9 bb
       0.018293254 -0.05786188 -0.055564947 -0.0056723356
0002b0 a1 13 85 bc 7c ad 29 3d d9 7d f6 bc 27 55 af 3c
       -0.016244711 0.041425213 -0.030089306 0.021402908
0002c0 4b e5 54 3d e8 09 05 bc 5e 90 75 bd dd 7c dc bc
       0.051976483 -0.008120038 -0.059952132 -0.026915008
0002d0 53 4b c2 3c b4 9d 02 bd 99 a6 b3 bc 37 a9 21 3d
       0.023717558 -0.03188868 -0.021930026 0.039468016
0002e0 d7 ca c0 bb 09 a2 cf 3c 11 c0 60 bd e1 d2 67 bd
       -0.0058835554 0.02534582 -0.05487067 -0.056597594
0002f0 0e 52 70 bc dc f9 32 bc b5 da 95 bd 3b 84 b6 bc
       -0.014668001 -0.010923829 -0.07317106 -0.02227985
000300 cb 73 91 3c d9 af 0e 3d 21 5d 60 3d ee 12 32 bb
       0.01775541 0.03483567 0.054776315 -0.0027171928
000310 32 6d 8f 3c 78 77 09 bc e6 07 ed bb 56 ad fc 3c
       0.017508123 -0.0083903 -0.0072336076 0.030844372
000320 8c 04 84 3d 7b 16 85 3d c5 99 d2 bc f6 d0 ed bb
       0.0644618 0.064984284 -0.025708089 -0.007257576
000330 13 10 8b 3d 4e 91 22 3a ba 89 b8 bc f2 5c 8a 3c
       0.06790175 0.00062014617 -0.02252661 0.016890023
000340 b4 eb 89 3c d8 5a ad 3d 1e 8f bc 3b 5a 4b fb bc
       0.016836025 0.08464593 0.0057543656 -0.030675579
000350 9c 53 7a bd 37 33 39 3d 26 9f 91 3c b2 93 8d bb
       -0.061114892 0.045214858 0.017776083 -0.004320585
000360 64 ea 99 3c 17 12 30 ba 3a 46 de bc 79 c9 bc bd
       0.018788524 -0.0006716563 -0.027133096 -0.09218115
000370 91 ad 15 bd c1 db 3d bc 08 60 cb 3a 02 5f 30 3c
       -0.03654248 -0.011588038 0.001551629 0.010764839
000380 fb 27 e4 bc 99 cc b1 3c 30 20 91 bc 76 5c 5e 3d
       -0.027851095 0.021704005 -0.017715544 0.054287396
000390 67 fe 62 3c 57 a8 73 bd 7f c3 98 bc eb 87 64 3c
       0.0138546 -0.059486713 -0.018647907 0.013948421
0003a0 9b 21 91 3d fe 31 11 ba ce b9 31 3c 3f cf c6 3d
       0.07086488 -0.00055387605 0.010847522 0.09707498
0003b0 ff 9d a1 3b 70 fe 65 bd 24 a7 a9 3d ef c1 1b bc
       0.0049321647 -0.056150854 0.08283833 -0.009506687
0003c0 d7 18 e4 3a 7f c2 eb 3c 22 0f 2f bd e9 30 75 bd
       0.0017402422 0.028779266 -0.04273904 -0.059861097
0003d0 7a 82 7b bd c3 8f 1e bb 8a 5e 08 3c f5 22 10 bd
       -0.06140373 -0.0024194575 0.008323321 -0.035189588
0003e0 8f 25 08 bd e1 bb ee bc c6 4d ea 3c 14 06 34 3d
       -0.033238944 -0.029142322 0.028601538 0.04395111
0003f0 a7 b8 b1 bc 5e cb a1 bc 9b 4f b0 3c 19 ed de 3c
       -0.021694494 -0.019750293 0.021522334 0.027212666

layer_norm.weight f4 [64]
000000 cf 0b 81 3f c9 09 89 3f 82 5d 87 3f 16 9d 7c 3f
       1.0081729 1.0706111 1.0575411 0.98677194
000010 c5 e1 89 3f 7d f2 63 3f 30 8d 66 3f 84 c1 70 3f
       1.0772024 0.8904188 0.90059185 0.9404528
000020 dc 45 89 3f 71 6b 85 3f d5 8a 59 3f 34 92 64 3f
       1.0724444 1.0423414 0.84977466 0.8928559
000030 ba b1 7c 3f e1 82 7f 3f b1 b2 86 3f 33 e1 6f 3f
       0.9870869 0.9980908 1.0523282 0.93703
000040 d7 0d 4d 3f 82 58 68 3f 68 49 56 3f 12 ed 82 3f
       0.8009924 0.9076005 0.8370576 1.0228598
000050 41 cf 5c 3f b5 b2 67 3f 18 1d 63 3f c3 72 66 3f
       0.86253744 0.9050706 0.8871627 0.9001886
000060 41 45 86 3f 8d e0 55 3f dd 8b 60 3f 94 a6 89 3f
       1.0489885 0.8354576 0.87713414 1.0753961
000070 62 ad 54 3f 2b 13 6c 3f ee 7a 76 3f d5 fd 5e 3f
       0.8307706 0.9221675 0.96281326 0.87106067
000080 41 91 5f 3f 62 79 64 3f 2b 4e 59 3f e1 15 79 3f
       0.87331015 0.89247715 0.848849 0.9729901
000090 e7 89 5d 3f f8 15 86 3f 71 ea 68 3f 56 95 57 3f
       0.8653855 1.0475454 0.9098273 0.84212244
0000a0 af dd 8a 3f 9d 40 59 3f 55 c7 65 3f c0 64 88 3f
       1.0848902 0.8486422 0.8975728 1.0655746
0000b0 36 f7 84 3f 21 9c 8a 3f 9d 03 8c 3f 99 0c 73 3f
       1.0387943 1.0828897 1.0938603 0.949411
0000c0 b9 0e 57 3f 4a eb 85 3f 7e 98 6e 3f d2 32 8b 3f
       0.8400684 1.046243 0.93201435 1.0874884
0000d0 06 31 81 3f 30 ab 8d 3f 23 87 8e 3f 00 e2 88 3f
       1.0093086 1.1067867 1.113499 1.069397
0000e0 b3 f3 66 3f e0 81 87 3f 2f bc 5b 3f 2e 9a 88 3f
       0.90215605 1.058651 0.8583402 1.0672052
0000f0 70 b6 85 3f 60 3c 89 3f a1 13 69 3f 75 09 89 3f
       1.04463 1.072155 0.91045576 1.0706011

layer_norm.bias f4 [64]
000000 23 96 07 3d 15 45 83 3c b5 29 cc bc b3 3d ab 3c
       0.033102166 0.016024152 -0.024922231 0.020903444
000010 1a df 9d 3c 2e 88 32 bd e5 da 0a bd 07 b3 0e 3d
       0.019271422 -0.043586902 -0.03390016 0.034838703
000020 b2 da 58 bc 19 2d d4 3c 79 1f 86 3a ac 87 96 3c
       -0.013235735 0.02590041 0.0010232768 0.01837524
000030 83 94 c1 3c 86 46 95 bc df 82 a8 bc 6d 1e a2 bc
       0.023630386 -0.018222105 -0.020570217 -0.019789899
000040 a2 5a d3 bc 5a 5f 32 bd c2 06 42 bc b1 e0 04 3d
       -0.025800053 -0.043547966 -0.0118424315 0.032440845
000050 d0 1a 33 3c 08 b7 ea bc 5f af e3 3c fc f1 7a 3c
       0.010931686 -0.02865173 0.027793584 0.015316483
000060 5b c2 aa 3c a1 86 8f bc 0c 03 9c bc 45 bd 91 bc
       0.020844629 -0.01752025 -0.019044422 -0.017790446
000070 98 9c fa bc b2 86 9a bc 0e 98 11 3d 28 aa 9b bc
       -0.030592248 -0.018863056 0.0355454 -0.019002035
000080 1a e3 57 bc c1 75 f6 bb 22 38 57 3c c8 c7 5f bc
       -0.013176704 -0.0075213616 0.013135942 -0.013658471
000090 81 b5 f1 bc 08 41 7f 3c d9 08 03 3d d2 22 99 3c
       -0.029505493 0.0155794695 0.03199086 0.018693361
0000a0 e7 4f 45 3c b5 ed 5e bc 93 07 20 bd e5 05 6c 3c
       0.012042976 -0.013606478 -0.039069723 0.014405702
0000b0 b5 e9 68 3c 8e 71 a3 3c 61 25 94 3c 91 2f b6 3c
       0.014215876 0.019951608 0.01808423 0.022239478
0000c0 d1 cf c0 bc f8 71 79 bc 99 9c e8 bc 3e 78 17 bd
       -0.023536595 -0.015224926 -0.028394984 -0.036979906
0000d0 dc fd 46 bc f7 a5 9b bc 4a 31 83 bc ab fc be bc
       -0.012145486 -0.019000037 -0.016014714 -0.02331384
0000e0 b7 20 d6 bc 0d 36 00 3d cf 54 d2 3c 1a 77 a0 bc
       -0.026138647 0.031301547 0.025675206 -0.019588042
0000f0 0a 3a 45 3c 60 ab a9 bc 76 fb 52 3c 77 71 b5 3c
       0.012037763 -0.0207116 0.012877336 0.02214883
